CD7.pt (torch, 8745 bytes, 20 tensors)

encoder1.0.weight f4 [8, 13]
0	0xbc1d8dea	-0.0096163545
1	0x3e58ef2a	0.21184984
2	0xbcc4cc05	-0.024023065
3	0xbe73a97e	-0.23795125
4	0xbe67b5ee	-0.22627994
5	0xbd5f43e4	-0.054508105
6	0xbe4dd9e6	-0.20102653
7	0xbe019e5d	-0.12658067
8	0xbe69e48d	-0.22841091
9	0xbe84d0a5	-0.25940433
10	0xbe5911bf	-0.21198176
11	0xbe0634f6	-0.1310614
12	0xbe5c5255	-0.21515782
13	0x3e45780e	0.19284078
14	0xbe3dbd8e	-0.1852934
15	0x3e498baa	0.19682184
16	0xbddec8cd	-0.108781435
17	0xbd63b35d	-0.055590976
18	0xbd7557c4	-0.059898153
19	0xbe7afb7d	-0.24509998
20	0x3dda836b	0.10669597
21	0xbdee275c	-0.11628601
22	0x3c8ffa18	0.017575309
23	0xbe06b9be	-0.13156793
24	0x3d02b33d	0.031909216
25	0xbe78241e	-0.24232528
26	0xbda49c86	-0.08037667
27	0x3ca2f90d	0.019894147
28	0xbe4c8d36	-0.19975743
29	0xbbfe9ac9	-0.0077699167
30	0x3defeebe	0.11715458
31	0xbe19e9f0	-0.15030646
32	0x3e05986e	0.13046429
33	0x3e483463	0.19551234
34	0xbc7591ff	-0.014988421
35	0xbd5ba74b	-0.05362634
36	0xbd25beb3	-0.040465068
37	0xbe2d1af0	-0.16904807
38	0xbe81730f	-0.25283095
39	0x3f055d9e	0.52095973
40	0x3e9610ed	0.29309788
41	0x3d0a0710	0.03369814
42	0x3e455a09	0.19272627
43	0x3f01a2ca	0.5063902
44	0x3d9c3357	0.0762698
45	0x3ef0f4a0	0.47061634
46	0x3e1d1d9c	0.15343326
47	0x3e16c8ae	0.1472499
48	0x3e905427	0.28189203
49	0x3d1817de	0.037132137
50	0x3c433c22	0.011916192
51	0x3df29a6a	0.118458584
52	0x3f0a2480	0.53961945
53	0x3e546b10	0.20743966
54	0x3f09fe6e	0.53903854
55	0x3e579b02	0.21055225
56	0x3e325cef	0.17418264
57	0x3ef22ed7	0.4730136
58	0x3e5a8d86	0.2134305
59	0x3e9dc82f	0.3081679
60	0x3f0b52fe	0.5442351
61	0x3ec1109c	0.37707984
62	0x3eec6591	0.4617124
63	0x3ef33a3b	0.47505364
64	0x3d23cc2b	0.03998963
65	0x3ef4bb65	0.4779922
66	0x3e87b064	0.26501763
67	0x3d991956	0.074755356
68	0x3ea18705	0.31548324
69	0x3e9ddc13	0.30831966
70	0x3f082499	0.53180844
71	0x3d017da6	0.03161397
72	0x3ebba4c9	0.3664916
73	0x3ef45634	0.47722018
74	0x3ec3586b	0.38153395
75	0x3e020960	0.12698889
76	0x3d8f0ce1	0.06984878
77	0x3ce6d419	0.028177308
78	0xbe575fdb	-0.2103266
79	0x3e715a66	0.2356964
80	0xbe8abb6d	-0.2709612
81	0xbe85e98e	-0.2615475
82	0x3e255a86	0.16147813
83	0xbce7ca27	-0.028294636
84	0xbdf634a0	-0.12021756
85	0x3d76b454	0.060230568
86	0xbe391ae7	-0.18076669
87	0xbdb5a41a	-0.088691905
88	0xbdef88ca	-0.11696012
89	0xbe7f07af	-0.24905275
90	0x3e5c2ff7	0.21502672
91	0x3e5242fa	0.20533362
92	0x3cc274b5	0.02373729
93	0x3ec24944	0.37946522
94	0x3ed47c95	0.415013
95	0x3ee335fc	0.44377124
96	0x3ef8b3c1	0.4857464
97	0x3c4ef399	0.01263132
98	0x3d976a18	0.07393283
99	0x3e73f3d5	0.23823483
100	0x3e1997ba	0.14999285
101	0x3b421f9b	0.002962089
102	0x3e6f215a	0.23352566
103	0x3ec55e98	0.38548732

encoder1.0.bias f4 [8]
0	0xbd0b2b90	-0.03397709
1	0x3d922652	0.07136215
2	0xbe9cdb01	-0.30635837
3	0x3f094e04	0.5363467
4	0x3f0d07ee	0.55090225
5	0x3ea69545	0.3253576
6	0xbd26bb1b	-0.04070578
7	0x3ea87087	0.32898352

encoder1.2.weight f4 [4, 8]
0	0xbe25b5c1	-0.16182615
1	0xbe9ad4b4	-0.30240405
2	0xbdf09604	-0.11747363
3	0xbc58c3cb	-0.013230274
4	0xbe903ac5	-0.28169838
5	0xbd05f779	-0.03270671
6	0x3df51d5d	0.11968491
7	0x3e3e925e	0.18610522
8	0x3e190df8	0.14946735
9	0x3e181d03	0.14854817
10	0x3d1947cb	0.037421983
11	0x3f284076	0.6572336
12	0x3f1f8e67	0.62326664
13	0x3ef0482c	0.46930063
14	0x3ea1e79f	0.31622025
15	0x3f0902d2	0.5351993
16	0xbe97f06b	-0.29675612
17	0x3dc2f8e6	0.0952013
18	0x3db7f31a	0.08981915
19	0xbe9f22b5	-0.31081167
20	0xbd800df5	-0.06252662
21	0x3df6405c	0.12023994
22	0x3d4258c9	0.047447953
23	0xbe97e66e	-0.2966799
24	0x3d6b6721	0.0574714
25	0x3e0dded1	0.13854529
26	0x3e84951e	0.25895017
27	0x3cc16ad5	0.023610512
28	0x3e139104	0.14410788
29	0xbe41484a	-0.18875232
30	0xbe508faa	-0.20367303
31	0xbebc3474	-0.3675877

encoder1.2.bias f4 [4]
0	0xbd5bf5eb	-0.053701323
1	0x3f1849c2	0.59487545
2	0xbe92958f	-0.2862973
3	0xbdc3cca5	-0.09560517

decoder1.0.weight f4 [8, 4]
0	0x3c9d4640	0.019198537
1	0x3e151f00	0.14562607
2	0xbdc49398	-0.09598464
3	0x3e5629e0	0.20914412
4	0x3d6cd720	0.057822347
5	0xbe5e5b20	-0.21714449
6	0x3e04c7fc	0.12966913
7	0x3dfcdab0	0.12346399
8	0xbee14ed8	-0.44005466
9	0x3f1809f3	0.5939018
10	0x3d7838b0	0.060600936
11	0xbdc89c3d	-0.09795425
12	0x3dd64f28	0.104643166
13	0x3ed16b8d	0.40902367
14	0x3e7b0a7c	0.24515718
15	0xbe9fec0d	-0.3123478
16	0x3ea48236	0.32130593
17	0xbc8e0df8	-0.017340645
18	0x3e4c69ac	0.19962186
19	0x3c40db7e	0.011771081
20	0xbeb7ce2e	-0.3589949
21	0x3e6c0b20	0.23051119
22	0xbeb2217a	-0.34791166
23	0xbd57b912	-0.05266673
24	0xbeeaa4e8	-0.45828938
25	0xbc07a500	-0.008279085
26	0x3ee5b370	0.44863462
27	0xbeefd6f6	-0.4684369
28	0x3eda5800	0.42645264
29	0x3f19d564	0.60091233
30	0xbefb6da8	-0.491071
31	0x3d61b232	0.05510158

decoder1.0.bias f4 [8]
0	0xbf00f871	-0.5037909
1	0xbd2f3e00	-0.042783737
2	0x3ec63d89	0.38718823
3	0xbe39a8df	-0.18130825
4	0x3e4baf29	0.19891037
5	0x3eea8ca6	0.4581043
6	0xbee4223a	-0.44557363
7	0xbc6f4c39	-0.014605575

decoder1.2.weight f4 [13, 8]
0	0x3e7be9e2	0.24600938
1	0x3e1b799b	0.15183108
2	0xbedb0337	-0.4277589
3	0x3d20db1d	0.039271463
4	0x3d845737	0.064619474
5	0x3e072874	0.13199025
6	0x3c0e56a0	0.008687645
7	0x3e0f2b3c	0.13981336
8	0xbd5bd3d8	-0.053668827
9	0x3ddd9771	0.10819901
10	0x3ce4c3e4	0.02792544
11	0x3d8984ca	0.06714781
12	0x3ec41813	0.38299617
13	0x3d82101f	0.06350731
14	0xbdc7cdce	-0.09756051
15	0x3e572531	0.21010281
16	0xbe8360cc	-0.25659788
17	0x3d2e1025	0.042495865
18	0xbe10f198	-0.1415466
19	0x3eb3cb8f	0.3511624
20	0x3e8eea73	0.27913246
21	0x3e98d7d9	0.2985218
22	0x3d35e991	0.0444122
23	0xbcb90d3d	-0.02258932
24	0x3e34ec88	0.17668355
25	0x3e0e3c68	0.1389023
26	0x3ea011db	0.31263623
27	0x3e91cc1a	0.2847603
28	0x3e7440fd	0.23852916
29	0x3e89d53c	0.26920497
30	0x3dd00c69	0.10158617
31	0x3e9c3c5a	0.30514795
32	0xbe1aea6a	-0.15128484
33	0x3e61bcad	0.2204463
34	0x3ead8289	0.33888653
35	0x3e21f0aa	0.15814462
36	0xbe2a2a51	-0.16617705
37	0x3e2987ce	0.16555712
38	0xbeb1142c	-0.34585702
39	0xbeb18b58	-0.34676623
40	0x3e04388d	0.12912197
41	0x3e4e0e8d	0.20122738
42	0x3e466816	0.19375643
43	0x3b7af7b9	0.0038294627
44	0x3e93f10c	0.28894842
45	0x3e1eba60	0.15500784
46	0x3eb1e5ea	0.34745723
47	0x3e8f91da	0.28040963
48	0xbe70195b	-0.23447172
49	0xbe17ebec	-0.14836091
50	0x3dd7b806	0.105331466
51	0x3e2bc1e0	0.16773176
52	0xbd9b8bc9	-0.07595021
53	0xbde5dcee	-0.112237796
54	0xbdbd4952	-0.092425
55	0xbdc4e33b	-0.09613653
56	0xbe150641	-0.14553167
57	0x3eb0beaf	0.3452048
58	0x3d4aaf7f	0.049483772
59	0xbea8962b	-0.3292707
60	0x3b5b9155	0.0033503373
61	0xbcfa9d1f	-0.0305925
62	0xbd2b0daa	-0.041761078
63	0xbe44e095	-0.19226296
64	0x3e5fd7c4	0.21859652
65	0x3e136239	0.14392938
66	0xbe1f8236	-0.15577015
67	0xbec126cd	-0.37724915
68	0x3dd81b6c	0.10552105
69	0x3dea73bb	0.11447855
70	0xbea33a15	-0.3188025
71	0xbece2a09	-0.40266445
72	0xbe1799fa	-0.14804831
73	0xbe5e47ee	-0.21707126
74	0x3efd48cd	0.49469605
75	0x3f820924	1.015904
76	0x3ee1e8d5	0.4412295
77	0x3ed1ed37	0.41001293
78	0x3c1a4e58	0.009418093
79	0x3e8a5b78	0.2702291
80	0x3db85a42	0.0900159
81	0xbc7b8c37	-0.015353254
82	0xbe8d13aa	-0.27554065
83	0x3e709eea	0.23498121
84	0xbe069b08	-0.13145077
85	0x3e49f3fc	0.19721979
86	0x3eaa950f	0.33316848
87	0x3dc4293b	0.095781766
88	0xbe618cd0	-0.22026372
89	0xbc92be1c	-0.017912917
90	0xbce6d129	-0.028175907
91	0xbd374c2e	-0.044750385
92	0xbe996d4a	-0.29966193
93	0xbdb55ffe	-0.088562
94	0xbce106d7	-0.027469082
95	0x3b0a54f7	0.0021107772
96	0x3e654442	0.2238932
97	0x3e6a60c3	0.22888474
98	0xbde9f67a	-0.11423965
99	0xbca72cf5	-0.02040718
100	0x3d31b5c0	0.04338622
101	0xbe8207a6	-0.2539646
102	0x3cb01652	0.021495018
103	0x3e39b5f3	0.18135814

decoder1.2.bias f4 [13]
0	0xbd511735	-0.051047523
1	0x3ec98a58	0.3936336
2	0x3ed8e5ad	0.4236273
3	0x3e8ebe05	0.27879348
4	0x3e8ec36d	0.27883473
5	0x3e7af7f1	0.24508645
6	0xbe82da2f	-0.25557086
7	0xbd9de606	-0.07709889
8	0xbe041e6d	-0.12902232
9	0x3e803360	0.25039196
10	0xbe3fa67d	-0.18715854
11	0xbdedbc43	-0.11608174
12	0xbd1d129a	-0.038347818

encoder2.0.weight f4 [8, 13]
0	0xbde33cd5	-0.11095587
1	0xbe2359b9	-0.15952195
2	0xbd81db1f	-0.06340622
3	0xbe4d2856	-0.20034918
4	0xbe2d33b8	-0.1691426
5	0x3e036f24	0.12835366
6	0x3e194eff	0.14971541
7	0x3d449e1c	0.048002347
8	0x39423664	0.00018521544
9	0xbeaa9f2a	-0.33324558
10	0xbeb04bc6	-0.3443281
11	0x3dbad1f5	0.091220774
12	0xbeb4a5c9	-0.35282734
13	0xbe88e5fc	-0.26737964
14	0xbe1aeced	-0.15129443
15	0x3e3c76cd	0.18404694
16	0xbe81799c	-0.25288093
17	0xbe7b0c2a	-0.24516359
18	0x3e81e726	0.25371665
19	0xbe896bb1	-0.26839975
20	0xbd710b73	-0.05884881
21	0xbe850741	-0.25982097
22	0xbe1f4935	-0.1555527
23	0x3c92bd0f	0.017912416
24	0x3de25033	0.11050453
25	0x3e879d7e	0.26487345
26	0x3c2c6a30	0.010523364
27	0x3e40887c	0.18802065
28	0xbdb6090f	-0.088884465
29	0x3e38a0bd	0.18030067
30	0x3e28735d	0.16450258
31	0xbe6033ea	-0.21894804
32	0x3e5e5cca	0.21715084
33	0x3dd0fc43	0.10204365
34	0xbe6bc1b6	-0.23023114
35	0x3cc84535	0.024447063
36	0xbe075ffa	-0.13220206
37	0x3e289a76	0.16465172
38	0xbe136f25	-0.14397867
39	0xbdda94b1	-0.10672892
40	0xbdcea29e	-0.100896105
41	0xbea3fc0a	-0.32028228
42	0xbd78f195	-0.060777266
43	0xbea0e6cc	-0.31426084
44	0xbe6c3356	-0.23066458
45	0x3ada54ce	0.0016657354
46	0xbe2d0900	-0.16897964
47	0x3e19d059	0.15020885
48	0xbe9ae045	-0.3024923
49	0x3d2efa9a	0.04271946
50	0xbe3016ed	-0.17196245
51	0xbeb18bc5	-0.34676948
52	0xbe7c256c	-0.2462365
53	0xbe6bc1eb	-0.23023193
54	0x3b68e5da	0.0035537393
55	0x3ba2a128	0.004963059
56	0xbe64905b	-0.22320692
57	0xbde759e7	-0.112964444
58	0xbe76d6d1	-0.24105383
59	0xbce1f881	-0.027584316
60	0x3c916f00	0.017753124
61	0xbe807943	-0.25092515
62	0xbe5dec43	-0.21672158
63	0xbe9d102c	-0.306764
64	0xbe0e2f0f	-0.13885139
65	0x3e4246cd	0.18972321
66	0xbd35bcc9	-0.044369493
67	0x3d470a2c	0.048593685
68	0xbcbe5e3a	-0.02323829
69	0x3caf1008	0.021369949
70	0x3de3f0d5	0.111299194
71	0xbd23f0b9	-0.040024493
72	0xbe641113	-0.22272138
73	0xbca95e59	-0.020674871
74	0x3e2a5c3a	0.16636744
75	0x3cdb9d92	0.026808534
76	0xbdaf33c6	-0.08554797
77	0x3d1c71fa	0.038194634
78	0xbe8a6648	-0.2703116
79	0x3dba30f1	0.09091366
80	0xbed66bec	-0.41879213
81	0xbd41c830	-0.047310054
82	0xbd500760	-0.050788283
83	0xbe9ad385	-0.30239502
84	0xbd95ef70	-0.0732106
85	0x3c5715dd	0.013127771
86	0xbdb09bc5	-0.08623461
87	0x3d24f05f	0.0402683
88	0x3d25f062	0.04051245
89	0xbe32ab8f	-0.17448257
90	0x3dc37536	0.095438406
91	0x3e0eb4b2	0.13936117
92	0x3edc3881	0.4301186
93	0x3ceb9d28	0.028761461
94	0x3e9767ea	0.29571468
95	0x3e136e56	0.14397559
96	0x3d635240	0.05549836
97	0x3ed53cd3	0.41647968
98	0x3d1a693f	0.037698027
99	0x3ec095dd	0.37614337
100	0x3e7dd693	0.24788885
101	0x3ec37bcf	0.38180396
102	0xbd939442	-0.07206012
103	0x3d211a63	0.039331805

encoder2.0.bias f4 [8]
0	0xbd471f93	-0.048614096
1	0x3d697c1a	0.057003118
2	0xbe6f4aae	-0.23368332
3	0x3e396b3b	0.18107311
4	0x3e051213	0.12995176
5	0xbe7182f2	-0.23585108
6	0x3d14f6cf	0.036368188
7	0x3e5ff639	0.2187127

encoder2.2.weight f4 [4, 8]
0	0x3e5f5d07	0.21812831
1	0x3e3ce445	0.18446453
2	0x3e1ae897	0.15127788
3	0x3ca73b84	0.020414121
4	0x3e5e85d9	0.21730746
5	0x3e211776	0.15731606
6	0xbdba2770	-0.09089553
7	0xbeac282d	-0.33624402
8	0x3e680fe2	0.22662309
9	0xbea09585	-0.31364074
10	0xbe628401	-0.22120668
11	0x3d6c8a7f	0.057749268
12	0xbe04f6ad	-0.12984724
13	0x3e9dfef6	0.30858582
14	0xbd95508c	-0.07290754
15	0xbdeabcde	-0.11461805
16	0xbdf31f82	-0.11871244
17	0x3e8c4af4	0.27400935
18	0xbeaeedb8	-0.3416574
19	0xbe42f45b	-0.19038527
20	0x3db3d0ee	0.087800846
21	0x3e97f54c	0.29679334
22	0x3e030235	0.1279381
23	0xbef797ab	-0.483579
24	0xbe06220e	-0.13098928
25	0x3d8ca553	0.068674706
26	0x39fa2397	0.00047710232
27	0xbdc37dca	-0.09545477
28	0xbd4ac0b0	-0.049500167
29	0xbd625a79	-0.055262063
30	0x3e4804dc	0.19533104
31	0x3d684f7a	0.05671642

encoder2.2.bias f4 [4]
0	0xbe82197f	-0.25410077
1	0xbde11614	-0.10990539
2	0x3c29389a	0.010328436
3	0xbe2c501b	-0.16827433

decoder2.0.weight f4 [8, 4]
0	0xbead66d4	-0.33867514
1	0x3cad1d60	0.021132171
2	0xbeea9106	-0.4581377
3	0x3e4f1980	0.20224571
4	0x3e653534	0.22383577
5	0x3e6046c8	0.21902001
6	0x3e152828	0.145661
7	0x3effad88	0.4993708
8	0xbeb254fe	-0.3483047
9	0xbd59fc72	-0.053219266
10	0x3ea420c8	0.3205626
11	0xbe8f048c	-0.27933156
12	0x3db20a68	0.08693391
13	0xbef60196	-0.48048085
14	0x3e02cb88	0.12772954
15	0xbeeb9cda	-0.46018106
16	0x3eef2f18	0.46715617
17	0x3e5300d2	0.20605782
18	0x3e69a3a0	0.22816324
19	0x3e71d653	0.23616914
20	0xbd868410	-0.06568158
21	0xbd5e5122	-0.054276593
22	0xbda6b5d8	-0.08140153
23	0xbd396b04	-0.045268074
24	0xbd9eda48	-0.077564776
25	0xbda6eb68	-0.08150369
26	0x3eb9eda4	0.36314118
27	0xbe827c8a	-0.2548564
28	0xbe82f11a	-0.2557457
29	0xbe3e07ec	-0.1855771
30	0x3e8ffe62	0.28123766
31	0x3d85b010	0.06527722

decoder2.0.bias f4 [8]
0	0xbe9caf62	-0.30602556
1	0xbe3853f4	-0.18000776
2	0x3f845390	1.0338001
3	0xbe0d6c20	-0.13810778
4	0x3f5eeb88	0.8707814
5	0x3f89682b	1.0734915
6	0xbe3fc4d8	-0.18727434
7	0xbe88e362	-0.2673598

decoder2.2.weight f4 [13, 8]
0	0x3e106fd7	0.14105164
1	0x3eb2625c	0.34840667
2	0xbeb40b30	-0.35164785
3	0x3db1c6f6	0.08680527
4	0x3e31589e	0.17318961
5	0xbea4beaf	-0.3217673
6	0x3e5cd6d5	0.21566327
7	0xbe9ddfb4	-0.30834734
8	0x3e53aed7	0.20672165
9	0xbe24923a	-0.16071406
10	0xbee75794	-0.45184004
11	0x3dbb9dda	0.09160967
12	0x3dedac0b	0.1160508
13	0xbe0c994e	-0.13730356
14	0x3cfa9be3	0.03059191
15	0xbe3c4cea	-0.18388715
16	0xbc9a1ab9	-0.01881157
17	0xbe94b2f7	-0.2904279
18	0xbe36b69b	-0.17843096
19	0x3cdf01ae	0.02722248
20	0x3e1c2b66	0.1525093
21	0xbe406753	-0.18789415
22	0xbe6acba2	-0.22929242
23	0x3e2152cb	0.1575424
24	0xbeaa1efb	-0.3322676
25	0x3de484ff	0.111581795
26	0xbea9b837	-0.33148357
27	0x3e9ca0ca	0.30591422
28	0xbea4105e	-0.32043737
29	0xbea8d7f6	-0.32977265
30	0x3e386569	0.18007435
31	0x3e04b851	0.12960936
32	0xbe8e79a8	-0.2782719
33	0xbbc1d4dd	-0.005915268
34	0xbe970d28	-0.29502225
35	0xbe0c2028	-0.13684142
36	0x3e03dcde	0.12877223
37	0xbe6610c7	-0.22467338
38	0x3e22d578	0.15901744
39	0xbd833c4d	-0.06407986
40	0x3e4b030e	0.19825384
41	0x3b850beb	0.0040602586
42	0xbea7bcdc	-0.32761276
43	0x3db9d8dd	0.090745665
44	0xbe952651	-0.29130796
45	0xbc1b9014	-0.0094948
46	0x3eabb3ef	0.33535716
47	0x3e893578	0.26798606
48	0xbe557254	-0.20844394
49	0xbea5b0e5	-0.32361522
50	0x3e0083bc	0.12550253
51	0xbeb138c7	-0.3461363
52	0xbaa8045f	-0.0012818685
53	0xbd9d5e1b	-0.07683965
54	0x3dd4aca8	0.10384494
55	0x3ea5b31c	0.32363212
56	0x3e9cb9bb	0.3061045
57	0xbe757dc8	-0.23973763
58	0x3c8a7348	0.016900674
59	0xbe596276	-0.21228966
60	0xbe09df07	-0.13463984
61	0xbea491c4	-0.3214246
62	0xbe4a09d8	-0.19730318
63	0xbd9c89e8	-0.07643491
64	0x3e574a2d	0.2102439
65	0x3e2f1673	0.17098407
66	0x3dd50a11	0.10402311
67	0xbd226c4f	-0.039654072
68	0xbea8353f	-0.32853124
69	0xbe4bbd6d	-0.19896479
70	0x3d4aa100	0.049469948
71	0xbe072faf	-0.13201784
72	0x3e3bdf5c	0.18346924
73	0xbe687d4c	-0.22704047
74	0x3f7910fd	0.9729155
75	0x3e5aebc5	0.21379001
76	0x3f9b642a	1.2139943
77	0x3f519e41	0.818821
78	0xbda89479	-0.08231444
79	0x3dbc0051	0.09179748
80	0xbc5c50f5	-0.013447036
81	0xbe33c173	-0.17554264
82	0x3e1ed70c	0.15511721
83	0x3e8cd842	0.27508742
84	0x3e6b8817	0.23001133
85	0xbe84e6f6	-0.2595746
86	0xbe134084	-0.1438008
87	0xbe20619a	-0.15662232
88	0xbe478d1e	-0.19487426
89	0xbe31209a	-0.17297593
90	0x3e2cef31	0.1688812
91	0xbdf1e666	-0.11811523
92	0x3e8bbb2c	0.27291238
93	0xbeb0de9b	-0.34544834
94	0xbe8444dd	-0.2583379
95	0xbe537506	-0.2065011
96	0x3eb20a69	0.34773567
97	0x3e142f0d	0.14471073
98	0x3da1627b	0.07880112
99	0xbe0d0dc4	-0.13774782
100	0xbca917b3	-0.020641183
101	0xbf078cee	-0.52949417
102	0x3eabd77d	0.33562842
103	0xbdd6df40	-0.104918

decoder2.2.bias f4 [13]
0	0x3d1adedd	0.037810195
1	0xbcad8b69	-0.02118464
2	0xbe38a8bd	-0.18033119
3	0xbe0bcbb3	-0.13651924
4	0xbd7edec6	-0.062224172
5	0xbe876242	-0.26442152
6	0xbde36bda	-0.111045554
7	0xbb887ef3	-0.004165524
8	0xbd9eeed3	-0.07760396
9	0x3f5f6d61	0.87276274
10	0xbe244c3f	-0.1604471
11	0xbdd32a39	-0.10310788
12	0x3b6c6924	0.003607341

out.0.weight f4 [4, 13]
0	0xbf181305	-0.5940402
1	0xbf319b80	-0.693779
2	0xbef3e66e	-0.4763674
3	0xbeb7fe5c	-0.35936248
4	0xbf0ece2d	-0.5578335
5	0xbeb8dd44	-0.36106312
6	0xbf3e7020	-0.7438984
7	0xbf2647f8	-0.64953566
8	0xbf447220	-0.7673664
9	0x3f94e2cc	1.1631713
10	0xbf018ae7	-0.50602573
11	0xbedfadef	-0.43687388
12	0xbf1494fb	-0.58039826
13	0xbf31a764	-0.6939604
14	0xbf39772f	-0.72447485
15	0xbe8025be	-0.25028795
16	0xbe5c8bcd	-0.21537705
17	0xbe8d6d07	-0.27622244
18	0xbf08510e	-0.5324868
19	0xbf002477	-0.5005564
20	0xbf19b711	-0.6004496
21	0xbe97154d	-0.2950844
22	0x3f86490b	1.0491041
23	0xbf148509	-0.58015496
24	0xbf0034b4	-0.5008042
25	0xbf33fe2a	-0.703097
26	0xbe20b65d	-0.15694566
27	0xbe3ff294	-0.1874488
28	0xbd0a9152	-0.033829994
29	0xbe750483	-0.23927502
30	0x3e8231ef	0.2542872
31	0x3e7ff460	0.24995565
32	0x3e6cb9fa	0.2311782
33	0x3dfa99fd	0.12236402
34	0xbe12703c	-0.14300627
35	0xbe635588	-0.22200596
36	0x3e1ea941	0.15494253
37	0xbe62ea18	-0.22159612
38	0x3e295e60	0.16539907
39	0xbda51f74	-0.0806264
40	0x3eda6f10	0.4266286
41	0x3d1fc5be	0.03900694
42	0x3cfa5a8d	0.030560756
43	0xbd5224a6	-0.051304482
44	0xba321028	-0.00067925686
45	0x3ec64c79	0.3873022
46	0xbd9a6283	-0.07538321
47	0xbc267fe3	-0.0101623265
48	0xbdee094f	-0.11622869
49	0x3ea95a0a	0.33076507
50	0x3e396245	0.18103893
51	0x3eaadf81	0.33373645

out.0.bias f4 [4]
0	0x3e66d89e	0.2254357
1	0x3f20a71c	0.6275499
2	0xbdac2f76	-0.0840749
3	0xbc73819c	-0.014862444

out.2.weight f4 [2, 4]
0	0x3f58fb3a	0.8475834
1	0x3f7c36cf	0.9852113
2	0x3e2f6898	0.17129743
3	0xbddb5586	-0.10709672
4	0xbf6b72c0	-0.9197197
5	0xbf30125d	-0.6877802
6	0x3e6b55d0	0.22981954
7	0x3d9d15d3	0.07670178

out.2.bias f4 [2]
0	0xbdf0be5d	-0.11755059
1	0xbf18c257	-0.5967154
